…
<div class=" highlight hl-ipython3"><pre><span></span><span class="n">model</span><span class="o">.</span><span class="n">summary</span><span class="p">()</span>
</pre></div>

    </div>
</div>
</div>

<div class="output_wrapper">
<div class="output">


<div class="output_area">

    <div class="prompt"></div>


<div class="output_subarea output_stream output_stdout output_text">
<pre>Model: &#34;model_2&#34;
__________________________________________________________________________________________________
Layer (type)                    Output Shape         Param #     Connected to                     
==================================================================================================
input_17 (InputLayer)           [(None, 128, 128, 3) 0                                            
__________________________________________________________________________________________________
lambda_15 (Lambda)              (None, 128, 128, 3)  0           input_17[0][0]                   
__________________________________________________________________________________________________
conv2d_84 (Conv2D)              (None, 128, 128, 16) 448         lambda_15[0][0]                  
__________________________________________________________________________________________________
dropout_40 (Dropout)            (None, 128, 128, 16) 0           conv2d_84[0][0]                  
__________________________________________________________________________________________________
conv2d_85 (Conv2D)              (None, 128, 128, 16) 2320        dropout_40[0][0]                 
__________________________________________________________________________________________________
max_pooling2d_38 (MaxPooling2D) (None, 64, 64, 16)   0           conv2d_85[0][0]                  
__________________________________________________________________________________________________
conv2d_86 (Conv2D)              (None, 64, 64, 32)   4640        max_pooling2d_38[0][0]           
__________________________________________________________________________________________________
dropout_41 (Dropout)            (None, 64, 64, 32)   0           conv2d_86[0][0]                  
__________________________________________________________________________________________________
conv2d_87 (Conv2D)              (None, 64, 64, 32)   9248        dropout_41[0][0]                 
__________________________________________________________________________________________________
max_pooling2d_39 (MaxPooling2D) (None, 32, 32, 32)   0           conv2d_87[0][0]                  
__________________________________________________________________________________________________
conv2d_88 (Conv2D)              (None, 32, 32, 64)   18496       max_pooling2d_39[0][0]           
__________________________________________________________________________________________________
dropout_42 (Dropout)            (None, 32, 32, 64)   0           conv2d_88[0][0]                  
__________________________________________________________________________________________________
conv2d_89 (Conv2D)              (None, 32, 32, 64)   36928       dropout_42[0][0]                 
__________________________________________________________________________________________________
max_pooling2d_40 (MaxPooling2D) (None, 16, 16, 64)   0           conv2d_89[0][0]                  
__________________________________________________________________________________________________
conv2d_90 (Conv2D)              (None, 16, 16, 128)  73856       max_pooling2d_40[0][0]           
__________________________________________________________________________________________________
dropout_43 (Dropout)            (None, 16, 16, 128)  0           conv2d_90[0][0]                  
__________________________________________________________________________________________________
conv2d_91 (Conv2D)              (None, 16, 16, 128)  147584      dropout_43[0][0]                 
__________________________________________________________________________________________________
max_pooling2d_41 (MaxPooling2D) (None, 8, 8, 128)    0           conv2d_91[0][0]                  
__________________________________________________________________________________________________
conv2d_92 (Conv2D)              (None, 8, 8, 256)    295168      max_pooling2d_41[0][0]           
__________________________________________________________________________________________________
dropout_44 (Dropout)            (None, 8, 8, 256)    0           conv2d_92[0][0]                  
__________________________________________________________________________________________________
conv2d_93 (Conv2D)              (None, 8, 8, 256)    590080      dropout_44[0][0]                 
__________________________________________________________________________________________________
conv2d_transpose_16 (Conv2DTran (None, 16, 16, 128)  131200      conv2d_93[0][0]                  
__________________________________________________________________________________________________
concatenate_16 (Concatenate)    (None, 16, 16, 256)  0           conv2d_transpose_16[0][0]        
                                                                 conv2d_91[0][0]                  
__________________________________________________________________________________________________
conv2d_121 (Conv2D)             (None, 16, 16, 128)  295040      concatenate_16[0][0]             
__________________________________________________________________________________________________
dropout_58 (Dropout)            (None, 16, 16, 128)  0           conv2d_121[0][0]                 
__________________________________________________________________________________________________
conv2d_122 (Conv2D)             (None, 16, 16, 128)  147584      dropout_58[0][0]                 
__________________________________________________________________________________________________
conv2d_transpose_17 (Conv2DTran (None, 32, 32, 64)   32832       conv2d_122[0][0]                 
__________________________________________________________________________________________________
concatenate_17 (Concatenate)    (None, 32, 32, 128)  0           conv2d_transpose_17[0][0]        
                                                                 conv2d_89[0][0]                  
__________________________________________________________________________________________________
conv2d_123 (Conv2D)             (None, 32, 32, 64)   73792       concatenate_17[0][0]             
__________________________________________________________________________________________________
dropout_59 (Dropout)            (None, 32, 32, 64)   0           conv2d_123[0][0]                 
__________________________________________________________________________________________________
conv2d_124 (Conv2D)             (None, 32, 32, 64)   36928       dropout_59[0][0]                 
__________________________________________________________________________________________________
conv2d_transpose_18 (Conv2DTran (None, 64, 64, 32)   8224        conv2d_124[0][0]                 
__________________________________________________________________________________________________
concatenate_18 (Concatenate)    (None, 64, 64, 64)   0           conv2d_transpose_18[0][0]        
                                                                 conv2d_87[0][0]                  
__________________________________________________________________________________________________
conv2d_125 (Conv2D)             (None, 64, 64, 32)   18464       concatenate_18[0][0]             
__________________________________________________________________________________________________
dropout_60 (Dropout)            (None, 64, 64, 32)   0           conv2d_125[0][0]                 
__________________________________________________________________________________________________
conv2d_126 (Conv2D)             (None, 64, 64, 32)   9248        dropout_60[0][0]                 
__________________________________________________________________________________________________
conv2d_transpose_19 (Conv2DTran (None, 128, 128, 16) 2064        conv2d_126[0][0]                 
__________________________________________________________________________________________________
concatenate_19 (Concatenate)    (None, 128, 128, 32) 0           conv2d_transpose_19[0][0]        
                                                                 conv2d_85[0][0]                  
__________________________________________________________________________________________________
conv2d_127 (Conv2D)             (None, 128, 128, 16) 2064        concatenate_19[0][0]             
__________________________________________________________________________________________________
dropout_61 (Dropout)            (None, 128, 128, 16) 0           conv2d_127[0][0]                 
__________________________________________________________________________________________________
conv2d_128 (Conv2D)             (None, 128, 128, 16) 1040        dropout_61[0][0]                 
__________________________________________________________________________________________________
conv2d_129 (Conv2D)             (None, 128, 128, 1)  17          conv2d_128[0][0]                 
==================================================================================================
Total params: 1,937,265
Trainable params: 1,937,265
Non-trainable params: 0
__________________________________________________________________________________________________
</pre>
</div>
</div>

</div>
</div>

</div>
<div class="cell border-box-sizing text_cell rendered"><div class="prompt input_prompt">
…
